fed_model.pth (torch, 2784 bytes, 4 tensors)

fc1.weight f4 [16, 8]
000000 e8 44 98 bc f1 ba 85 3e e2 6d 94 3d fd b1 5f 3e
       -0.018587545 0.26119187 0.07247521 0.21845241
000010 66 b0 86 be c0 d3 5a be b7 eb 8e 3e 95 29 a9 be
       -0.26306456 -0.21369839 0.2791421 -0.33039537
000020 30 38 93 bd 04 76 92 39 9d ce a1 be 2e 2f 5a be
       -0.07188451 0.00027935219 -0.31602946 -0.2130706
000030 5e 64 ea bd 8d 23 98 be 51 be 71 be d6 12 80 be
       -0.11444925 -0.29714623 -0.23607756 -0.2501437
000040 00 25 8b be 3c bf 0a bd 43 1d ef 3c 1c 8e 77 3e
       -0.27176666 -0.03387378 0.029188758 0.24175304
000050 69 8a ae be 9e 5d a7 be 23 c5 54 be 2b dd 46 be
       -0.34089974 -0.32688612 -0.20778327 -0.19420306
000060 5d 6a 84 3e cd 52 c3 bd 7a 35 9c be 5d ca b7 3d
       0.258624 -0.09537277 -0.3050955 0.089741446
000070 a0 0d 5b be 3a be 32 bd 63 95 bf bd ab b0 a4 be
       -0.21391916 -0.043638445 -0.09354665 -0.32166037
000080 25 34 82 3e ee 09 eb bd d7 60 90 3e 7a 28 8e be
       0.25430408 -0.11476503 0.28198883 -0.27765256
000090 ea db c2 bd d6 0b 2a bd 8e 93 76 be 8f 15 52 bb
       -0.095146015 -0.041515194 -0.24079725 -0.0032056307
0000a0 ea 61 86 3e fe 01 70 be 2d 78 bc bc 20 55 7b 3d
       0.26246578 -0.2343826 -0.023006523 0.06136048
0000b0 a7 d3 a5 be 42 22 f9 bd 10 1a f1 3b 1b 08 16 3e
       -0.3238804 -0.12164737 0.007357843 0.1465153
0000c0 8a b4 a3 be 04 6a a0 3d 05 ae 67 be f9 13 ab be
       -0.31973678 0.07832721 -0.22624977 -0.33413675
0000d0 bf 69 a0 bd 4e 7d 4f be 9c 05 3b 3e 9a 93 82 3e
       -0.078326695 -0.20262644 0.18263859 0.25503236
0000e0 07 61 e6 3b 90 7d c7 bd 55 a2 b0 be 1b 20 df bd
       0.0070306095 -0.09740746 -0.3449885 -0.108947955
0000f0 45 0d b9 bd c5 85 94 be 15 e6 40 be 24 5e 75 3e
       -0.09035734 -0.29008308 -0.1883777 0.23961693
000100 60 b4 b2 3e 86 18 c4 3d 57 99 5b 3e fb 85 8a be
       0.3490324 0.0957499 0.21445213 -0.27055344
000110 ef 18 93 3c 17 98 d6 bc 3f 8c 9f 3e 60 39 51 3e
       0.017956225 -0.026195569 0.31161687 0.20432043
000120 89 c8 07 be d7 63 60 be 61 43 16 bd cc aa bf 3c
       -0.13260092 -0.21913086 -0.03668535 0.023396872
000130 f8 8d 90 3d 81 e3 09 be 56 45 ab 3c 11 cb 9f bd
       0.070583284 -0.13465692 0.020907085 -0.07802404
000140 e6 09 bb 3d 13 03 e9 ba 7a 73 7f 3e ec ff 23 3e
       0.09132747 -0.0017777405 0.24946395 0.16015595
000150 25 50 20 3e 29 cd e6 bd 63 dd 72 be 18 d9 83 3d
       0.15655573 -0.112696 -0.23717265 0.06437892
000160 3d e7 b5 bd 49 76 31 3e 30 35 02 3d 9a 01 a2 be
       -0.08881996 0.17330278 0.031789005 -0.31641847
000170 03 a9 65 3e 65 9f 9b 3e 3c 4d b4 3e 5c 5b b0 3e
       0.22427754 0.30395046 0.35215175 0.34444702
000180 8a 65 54 be 6a b6 b3 bd e6 96 b1 3e e4 04 7c 3e
       -0.20741859 -0.08775027 0.3468544 0.2461124
000190 3f ca 4a be 92 5f ae bd b8 5a 9d 3e da a1 12 3e
       -0.19803713 -0.08514322 0.30733275 0.14319554
0001a0 b7 7a a0 be 9e 5f f6 bd 1c 98 01 3e 96 0e 0e bd
       -0.31343624 -0.12029956 0.12655681 -0.03468188
0001b0 d5 80 97 be 42 5c bf bd a2 31 9f bd 0a 29 a9 be
       -0.2959048 -0.09343769 -0.077731386 -0.33039123
0001c0 bc c9 b3 bd fe e6 9c bb 12 66 a9 3e 1f 8a a9 3e
       -0.08778712 -0.0047882786 0.33085686 0.3311319
0001d0 0f 16 a7 3d 87 46 9e 3e 31 b8 bc bc 1a be 3b 3e
       0.08158504 0.30913183 -0.023037048 0.18334237
0001e0 61 63 2b 3e 38 5d c5 3d 63 45 b3 be c9 52 af 3e
       0.16737129 0.09636921 -0.35013875 0.34242848
0001f0 26 bc b2 be 3d 84 69 3e 60 3c 52 3c 79 5e 17 be
       -0.3490917 0.22804351 0.012831777 -0.14782132

fc1.bias f4 [16]
000000 fa 4e 8b bd d2 5d 98 be 9c 80 ac be cf 04 6d 3e
       -0.06802173 -0.2975908 -0.3369187 0.23146366
000010 fa c6 3f be 41 e0 87 3e 70 b6 1d 3e 12 86 4a 3e
       -0.18728247 0.2653828 0.15401626 0.19777706
000020 fb 4b 63 3e ca bd 90 be ea 92 48 be 23 5f a7 be
       0.22196953 -0.28269798 -0.19587293 -0.3268977
000030 19 0b 5f 3e e4 d6 b2 be a0 d4 92 be 3e a0 55 bd
       0.21781577 -0.34929574 -0.28677845 -0.052154772

fc2.weight f4 [2, 16]
000000 9f f2 0a 3c 19 07 e4 3d 4b 50 41 be 35 1f 49 be
       0.008480697 0.11134166 -0.18878286 -0.19640811
000010 d6 d0 5f be ca 80 6b 3b 65 ac 7f 3e 41 71 3f 3e
       -0.21857008 0.0035934919 0.24968107 0.18695547
000020 e1 a4 9a 3d 74 f3 36 be 15 81 37 3e c3 22 28 3d
       0.075509794 -0.17866307 0.17920335 0.041048776
000030 e8 38 e2 3d d5 b7 ad bd 48 ab 76 3e 4d 8a 67 3e
       0.1104601 -0.08482329 0.24088776 0.22611351
000040 16 ba 2d 3a 23 e8 a5 3d db dd 5c be 86 22 1b bd
       0.0006627155 0.08100917 -0.21569006 -0.03787472
000050 2c e7 2b 3e 74 1b 41 bd 85 b7 3d 3e f4 13 9a 3d
       0.16787404 -0.047145322 0.18527038 0.07523337
000060 06 97 c1 3d 90 17 11 bd c7 96 6b 3e 85 44 6b 3e
       0.094526336 -0.03542286 0.23006736 0.22975357
000070 e4 98 8c 3d e5 fa bf 3d 0a c0 2c 3e d4 66 62 3e
       0.06865099 0.09374026 0.16870132 0.22109538

fc2.bias f4 [2]
000000 dc 6b 28 be c8 ee 81 be
       -0.16447395 -0.25377488
